LibLlie/models/Zero-DCE/Zero-DCE.pth (torch, 322043 bytes, 14 tensors)

conv1.conv.weight f4 [32, 3, 3, 3]
00000000: 444d 1a3d 9a0d f73c 8a82 163d 5a2b bf3c
00000010: 60b5 a73b 5d04 e83c 74c8 da3c c121 ab3c
00000020: 80d6 2a3d b6de eabc a88b 49bc de28 05bd
00000030: 7013 64bc 4374 ddbc 561b 12bd 1f97 42bc
00000040: caf8 1b3b 0702 b7bb 0cfe 33bc c794 0abd
00000050: c840 39bd 1036 c7bc a754 8abc 2f27 c4bc
00000060: 6b2c 88bc 771c e5bc 10f8 e1bc 2be9 013d
00000070: f202 7b3b 9d27 29ba e92c 5d3d bac9 8fbc
00000080: ce29 3ebc 0a58 84bd ddc5 a7bd 6958 acbd
00000090: 44e0 463d aae4 4d3c 574e 0a3c 5887 6039
000000a0: 5bef febc 9d0e 193c 7bec 3cbd f772 9cbd
000000b0: d9d9 42bd 6960 d3bb 410a e83b d4d6 e6bb
000000c0: 303d 53bc 762a 58bd b20c c63b 6ab3 89bd
000000d0: 3a15 b1bd 356f 75bd 7126 2a3c 375a 2bbd
000000e0: fcc6 153e 008c 233d fadb 8dbd 4883 6a3d
000000f0: 5e59 d2bc ffc6 22bd 1b60 e43d eb86 9dbc
00000100: 17cf 5abd 2df1 303e 0b80 cc3c 03bd 7abd
00000110: 79bd 7b3d 0054 6fbd 3f23 68bd eda6 103e
00000120: a349 89bb f7d0 85bd b3ca ae3d 0d33 283d
00000130: 0c37 84bd ae7a 073c bfcf 673c 95fe 42bc
00000140: d3d3 a73d 74ec 253c 7636 f5bb e4bc 28bd
00000150: a6ad 5abc fd8a 26bb 6883 7abc 8297 3c3c
00000160: 49e4 3abc 15ee abbc 8884 5f3c 6b81 63bc
00000170: 63be 92bc 927e 5d3c ca4e 9ebc 399d 7abc
00000180: 635c 28bc c2bd d0bc 6261 1fbd 0674 9bbc
00000190: 9b7d 12bc 2ff2 303c 8af3 13bb d4fb ecbb
000001a0: d06a a93b 1a0e d23a c3ed 803c e536 e03c
000001b0: 146a 9b9a 1496 eb9a 7b3c ad9a ab02 a39a
000001c0: 9538 149b 32ee f39a 79a7 739a b389 fb9a
000001d0: 3045 f99a cca0 4d9d 0810 ad9d 1f02 819d
000001e0: 3e1a 859d e112 009e 791b cc9d c622 619d
000001f0: 153b ec9d 0d3c d99d cc68 9d9e 2757 079f
00000200: ba22 c09e 2969 cc9e 08e8 4a9f fcaa 179f
00000210: f51a b09e 0d81 3c9f 2333 229f b7ff bc3d
00000220: 81a6 98bc 66d1 fa3c 6784 ce3c 967f a7bc
00000230: d191 bcbb 48eb 563d 6281 88bc f194 f33b
00000240: 6629 7f3d e81c 86bc 82e3 063c 1f40 f73c
00000250: 8d7b 4dbd 80f9 07bb 7edf ad3c 471c a9bc
00000260: 31d0 e3bc 703d aa3d 77e0 27bd d4a9 883c
00000270: cf09 c53c ce14 09bd df6b 813c da75 3a3d
00000280: 23f2 d0bc 4c15 4c3b 9676 2dbb c7e5 d13b
00000290: 78ce c6bc a172 853c 2486 98bb dd82 453c
000002a0: 8fee 89bb 8c66 83bc 0fb5 4a3b c300 5f3b
000002b0: ae40 e4bc f954 04bd 168d 173c f212 bcbc
000002c0: dd10 c1bb 96ea a9bc 1f83 5cbc 34ae fbbc
000002d0: 606f ef3b 46da 8fbc 08fe 2eba 681e 5e3c
000002e0: e165 eebb 9c71 37bc 5d6d 12bc 0c1b 70bc
000002f0: 2605 ddbc dbe9 7d3d 5438 2abc bca0 373d
00000300: b436 89bc 1bfe ae3a c8bc 8abc 0a68 843d
00000310: 8980 88bc 0a9e 043d 68d4 7b3d 8825 e13c
00000320: c100 2c3d ebb3 3b3d 8213 edbb 01f6 a93c
00000330: 1840 fd3c aada 793c cc52 723c 51b6 8fbc
00000340: 2647 00bd 4d77 0abd 509b bfbc 2a84 63bd
00000350: 0d57 4cbc 6b7d b7bc ec2f 58bd 0d52 08bd
00000360: ad1a 56bd 3c78 9fbc 5818 20bc 60d7 febc
00000370: dc6f 8e3c f8b2 1f3c d057 f53c dafa 143d
00000380: 0706 bc3c fd5c 16bd cce8 cdbc eaac b23c
00000390: bc36 a13c 0bf4 d93c 3b2e 0e3d 9696 ca3c
000003a0: ddbd 413d f23c 523d 2e48 1bbe e5c8 01be
000003b0: c3fd ccbd ca13 a6bd 0885 bfbd c989 60bd
000003c0: 5cad 10bd 01d3 91bc 55a3 18bd 108f b03d
000003d0: 5554 213c 1f82 c53d 4300 973c 7de0 92bb
000003e0: 3a5b 533d 684c 12bd f755 e23a f548 d1bc
000003f0: 826d db3d 2be3 893c 48a1 513d 5726 e2bb
0.037671342 0.030157853 0.036745586 0.023336101 0.005118057 0.028322393 0.026706912 0.020890119
0.04170847 -0.02867065 -0.012301363 -0.032509677 -0.01392065 -0.027032977 -0.0356706 -0.01187685
0.0023799413 -0.0055849585 -0.010985862 -0.03383329 -0.045227796 -0.024317771 -0.016886069 -0.023944465
-0.016622743 -0.027967675 -0.027584106 0.031716507 0.0038301316 -0.0006452741 0.053997908 -0.017552245
-0.011606647 -0.064621046 -0.08192036 -0.084153004 0.04855372 0.012566725 0.008441529 0.00021412724
-0.031119993 0.009341863 -0.046123963 -0.07639115 -0.047571037 -0.006450702 0.0070813005 -0.0070446525
-0.012893006 -0.05277487 0.006043994 -0.06723674 -0.08646627 -0.05992051 0.010385142 -0.041834082
0.14626688 0.039928436 -0.06926723 0.057254106 -0.02567738 -0.03974056 0.11151143 -0.019229373
-0.053420153 0.17279501 0.0249634 -0.061215412 0.061459992 -0.058429718 -0.05667424 0.14126177
-0.0041896864 -0.065339975 0.085347556 0.04106431 -0.06455812 0.008268995 0.014148652 -0.011901517
0.08194699 0.010127176 -0.007483299 -0.041195765 -0.013347065 -0.0025412433 -0.015290119 0.011510732
-0.0114069665 -0.02098755 0.013642438 -0.013885836 -0.01791305 0.013518946 -0.019324679 -0.015296274
-0.010275933 -0.025481109 -0.03891123 -0.018976223 -0.0089410795 0.010799929 -0.002257558 -0.0072321687
0.0051702037 0.0016025931 0.015738374 0.027369926 -6.4277876e-23 -9.7436186e-23 -7.1648834e-23 -6.741953e-23
-1.2260556e-22 -1.0088727e-22 -5.0386506e-23 -1.0403363e-22 -1.03095765e-22 -2.7214654e-21 -4.5809295e-21 -3.414821e-21
-3.523194e-21 -6.780168e-21 -5.4026756e-21 -2.979648e-21 -6.252977e-21 -5.7501513e-21 -1.6666365e-20 -2.8659453e-20
-2.0343153e-20 -2.1642833e-20 -4.2967096e-20 -3.211693e-20 -1.8645874e-20 -3.9917297e-20 -3.4347134e-20 0.09228461
-0.018634083 0.030617427 0.025209619 -0.02044658 -0.0057546874 0.052470475 -0.016663257 0.0074335267
0.06229534 -0.016371205 0.008232953 0.030181943 -0.050166655 -0.0020748079 0.021224733 -0.020643367
-0.027809234 0.083124995 -0.04098555 0.016682543 0.024052529 -0.033467107 0.015798507 0.04552255
-0.025506085 0.0031140624 -0.0026468388 0.0064055654 -0.024268374 0.01629001 -0.0046546627 0.012055126
-0.0042093466 -0.01604011 0.0030930673 0.0034027554 -0.027862873 -0.0323076 0.009249946 -0.022958253
-0.005891903 -0.020741742 -0.013458996 -0.030722715 0.007306978 -0.017560136 -0.0006675427 0.013557054
-0.0072753285 -0.01119652 -0.008937207 -0.014654886 -0.026979994 0.0619906 -0.010389406 0.044831023
-0.016749717 0.0013350876 -0.016935721 0.064651564 -0.016662853 0.03237728 0.061481863 0.027483717
0.041992906 0.04582588 -0.0072349915 0.020747187 0.030914351 0.0152498875 0.014790248 -0.01754299
-0.031317852 -0.03380518 -0.023389488 -0.055545963 -0.012471926 -0.022398671 -0.052780077 -0.033281375
-0.052271534 -0.019466512 -0.009771429 -0.031108558 0.017387323 0.009747259 0.029949099 0.036372043
0.022952093 -0.036709774 -0.02513542 0.021810967 0.01967942 0.026605627 0.034712058 0.024730008
0.04730021 0.051327653 -0.15164253 -0.12674291 -0.10009339 -0.08109243 -0.093515456 -0.054818902
-0.03532158 -0.01780081 -0.03726514 0.08621037 0.0098467665 0.09643959 0.018432742 -0.0044823275
0.051600672 -0.035717398 0.0017268051 -0.025547484 0.10714246 0.016831955 0.0511792 -0.006901543

conv1.conv.bias f4 [32]
00000000: 7470 0f3e a6b0 f93d 7c92 0abb 4fa8 3f3e
00000010: cfa6 26b6 24d4 9dba e5b0 213e 761b 243c
00000020: 75f3 543d 937b 003c 88cc ee3c 9736 063e
00000030: e733 aa3b 5efd 41b7 f281 3b3b 2759 6a3d
00000040: b309 1f3e d09f bbb9 8112 db3b 100c 803d
00000050: 0a13 803b 48bb a6bd 29df c1b7 67ec 253e
00000060: 674a 103d 2a23 87b9 ca0c f43b 2277 7fb9
00000070: c132 0f80 584d 54b5 1ea8 ff3d 80ee 97b7
0.14007741 0.12191896 -0.002114444 0.18716548 -2.4833023e-06 -0.0012041372 0.15790136 0.010016313
0.05198999 0.007841962 0.029150262 0.13106762 0.0051941755 -1.1562688e-05 0.002861139 0.05721393
0.15531044 -0.0003578649 0.0066855554 0.06252301 0.0039085196 -0.0814119 -2.311131e-05 0.16203462
0.035227206 -0.00025775406 0.0074478136 -0.00024363075 -1.39574e-39 -7.9088704e-07 0.12483238 -1.8111663e-05

conv2.conv.weight f4 [32, 32, 3, 3]
00000000: c629 433d c566 36bc ce18 213c 7a72 df3c
00000010: c003 0dbd 0326 f1bc 9fa5 953c fad5 f7bc
00000020: 9187 0cbd 931f 013d d178 0c3c e1fe 0c3d
00000030: c077 4ebc ab3d b4bc 917e ed3c bd88 e3bc
00000040: 6238 05bb d5ad d53d 8abe 00bd 8f13 5dbc
00000050: c6a1 8fbd eae9 85bc 65a5 283c c4e6 1abd
00000060: 1715 bbbc e59d 22bb 80f2 d3bd 9dec 853d
00000070: 24ca b73c 1797 2a3d 548c 3a3d b7ea 73bc
00000080: e0af 9bbb ffc2 2a3d 66f9 3d3c 2a1d 963c
00000090: e776 0000 2ed3 0080 63ea 0000 a7ea 0000
000000a0: c9ac 0080 28e5 0000 d639 0000 026a 0000
000000b0: 1de9 0000 a202 cd3d 6a32 0fbc 617e 013c
000000c0: be46 f83c fbae 0ebc 3716 ea3c 948e 0f3d
000000d0: 19e4 b63b fd74 523d 8001 8b3c e6d6 383c
000000e0: f877 3b3d 29e0 1d3c a9ef 86bc b156 153c
000000f0: b07c c23c fba0 923b cd6e 3a3d a0fb 6a3d
00000100: 32f0 26bc 7ae8 51bb 8513 b63c 02fa 1fbc
00000110: 27bf 8a3b 96c5 283c a274 d5bc 8ce1 c4bc
00000120: bfdc 88bd 047d 073b caeb 523d 8a2e dfbc
00000130: 4416 91bb 4afe d03c 9f7a 7dbb faeb 5a3b
00000140: 990f ad3c 7881 b13d 2411 683b 695f 0b3d
00000150: 3c51 b93a b13e 333b 3ac8 893d 7e53 c5bc
00000160: c782 2f3c 6461 b63d b378 92bc 553e 1bbb
00000170: 9215 383d 30b6 aa3c da6d 903b 1003 213d
00000180: a9ee 143d 9b6d 9db8 e7d1 e7bc 00b8 483d
00000190: ed6f 5d3c ec19 b03c 6b03 0d3d 5e78 9bbc
000001a0: ad70 75bc 27c4 0d3d 061c 62bc cbf6 4fbb
000001b0: 90e4 2ebc 4bbe 06bc 45c0 b0bb 9003 28bb
000001c0: 6f1e 3fbb 2cb2 9fbb fb96 14bd 94db 24bd
000001d0: 9925 4dbd c4d7 0000 6ed2 0000 95b2 0080
000001e0: 0515 0000 4a23 0100 0e02 0080 50aa 0080
000001f0: 2d4d 0000 f763 0000 a70c 09bb 95b7 edba
00000200: 9d14 813a faed eaba 7dc5 97ba c294 d13a
00000210: 6797 9cba 68c5 49b6 0219 f93a 75cc 0c39
00000220: dd5a f53b 3c3e 253d 1f8e 04bc a136 5dbb
00000230: c981 023d 370b 8cbb 0798 1b3c 63d6 663d
00000240: 2eb3 8a3c 5907 3a3c 8d56 313d 2850 e03c
00000250: 9640 76bc 5977 9f3c 41ee fc3c d2f2 aebc
00000260: 7574 f3bc 9bc4 0000 ab8e 0080 1f91 0000
00000270: 338e 0000 5263 0080 ee30 0000 7d94 0080
00000280: 2f89 0080 df21 0000 1802 793d 5eb5 343b
00000290: d31d 96ba 0d09 633d 7ac9 8a3b c38f 21ba
000002a0: b807 533d 4d4b d63b 8c34 093b 5344 78bd
000002b0: c861 07bc ba67 3c3d d679 2dbd 47ad 0fbb
000002c0: bf7c 4d3d b480 7fbc a369 cb3c 74ff aa3d
000002d0: e881 0d3d 7b34 a93c 01e1 0f3c 4aff de3b
000002e0: 98df 823b e3d4 223b d365 e3ba 1e2e 153a
000002f0: b198 483b 7a81 14bd c65f 82bc 82e5 8a3c
00000300: fc6f c3bc 8e10 41bc 7a60 883c 2ba4 57bc
00000310: f3ba 19bc b6eb b63c 942d 0080 fc66 0000
00000320: ae73 0080 0bbc 0080 768d 0080 a5d1 0000
00000330: 1056 0000 00a6 0000 21c2 0080 03ae 6f3d
00000340: 1810 a13c af72 143d a0e1 dc3c 6ae6 8bbc
00000350: e844 a3bb 1396 d23c e958 83bc e15e bdbb
00000360: 3ad3 c03d ab24 efbc 876a 41bc 41e3 d63c
00000370: 4488 bebc ec70 d23b 7c5c fd3a 7bb9 b0bc
00000380: ecd3 903c 1df6 0080 0896 0000 bf32 0080
00000390: e505 0080 8072 0080 4f31 0000 dee6 0080
000003a0: 1c20 0000 1e2e 0080 3cc4 3a3d acf1 ccba
000003b0: a9ff 023d f01a 3c3d a03e 393c 4006 143d
000003c0: 8b22 993d 7ecb a5b9 1405 bdbc 1d26 0080
000003d0: b539 0000 0997 0080 982f 0000 2636 0000
000003e0: e41f 0080 bf45 0000 8f69 0000 6498 0000
000003f0: a44d 0100 0723 0100 3c78 0080 b237 0100
0.04764726 -0.011132901 0.009832574 0.027276266 -0.034427404 -0.02943707 0.01826745 -0.0302534
-0.034308974 0.031524252 0.008573727 0.03442276 -0.012601793 -0.022002062 0.028991016 -0.027775163
-0.0020327796 0.104335465 -0.031431712 -0.013493433 -0.07013278 -0.01634689 0.010293339 -0.03781773
-0.022837205 -0.002481335 -0.103489876 0.06539271 0.022435255 0.041647997 0.045543984 -0.014887503
-0.0047511905 0.04168987 0.011595106 0.018324453 4.2654e-41 -7.5757e-41 8.4082e-41 8.4177e-41
-6.1984e-41 8.2206e-41 2.0748e-41 3.8028e-41 8.3625e-41 0.10010268 -0.008740047 0.007903666
0.03030717 -0.008708711 0.028575046 0.035048082 0.0055813906 0.0513811 0.016968489 0.0112817045
0.045768708 0.0096359635 -0.0164717 0.009114907 0.023741096 0.004474757 0.045515824 0.057368875
-0.010189103 -0.0032029436 0.022226105 -0.009764196 0.004234213 0.010301014 -0.026056591 -0.02403333
-0.06682729 0.002067388 0.051494397 -0.027243871 -0.004427703 0.02551188 -0.0038677824 0.0033404813
0.021125602 0.08667272 0.0035410607 0.034026537 0.001413859 0.00273506 0.06727643 -0.024087664
0.010712332 0.089052945 -0.01787982 -0.0023688276 0.044942446 0.020838827 0.0044076266 0.03930956
0.036360417 -7.506759e-05 -0.028298331 0.0490036 0.013515455 0.021496736 0.034427088 -0.018978294
-0.014980477 0.034610894 -0.013800627 -0.0031732793 -0.010674611 -0.00822408 -0.005394014 -0.002563689
-0.0029162427 -0.0048735347 -0.0362768 -0.04024847 -0.050084684 7.7402e-41 7.5488e-41 -6.4063e-41
7.54e-42 1.04495e-40 -7.37e-43 -6.1097e-41 2.7685e-41 3.586e-41 -0.0020912082 -0.0018136377
0.0009848062 -0.0017923706 -0.0011579242 0.0015989768 -0.0011946977 -3.006624e-06 0.0019004645 0.00013427607
0.0074876384 0.040342554 -0.008090525 -0.0033754485 0.031862054 -0.004273798 0.009496695 0.0563568
0.016931143 0.011354291 0.043295432 0.027381971 -0.015030047 0.01946609 0.030875327 -0.02135602
-0.029718617 7.0529e-41 -5.118e-41 5.206e-41 5.1011e-41 -3.563e-41 1.7553e-41 -5.3268e-41
-4.9212e-41 1.215e-41 0.060793012 0.0027573924 -0.001145298 0.055428553 0.0042354437 -0.0006163085
0.051521033 0.0065397383 0.0020935861 -0.060612034 -0.008263059 0.04599736 -0.04235252 -0.002192335
0.050167795 -0.01559465 0.024830645 0.08349505 0.034547716 0.020654907 0.008781672 0.006805335
0.0039939396 0.0024846129 -0.0017349072 0.0005690771 0.003060859 -0.03625629 -0.015914809 0.016955141
-0.02385711 -0.011783732 0.016647566 -0.013161699 -0.009382951 0.022329193 -1.635e-41 3.6944e-41
-4.1498e-41 -6.7457e-41 -5.0747e-41 7.5206e-41 3.0873e-41 5.955e-41 -6.964e-41 0.05851556
0.019660994 0.036242183 0.026963055 -0.017077643 -0.0049825795 0.025706327 -0.016033607 -0.0057791327
0.09415288 -0.02919229 -0.011805183 0.02623141 -0.023258336 0.0064221527 0.0019329931 -0.021572819
0.017679177 -8.8289e-41 5.3821e-41 -1.8204e-41 -2.115e-42 -4.1075e-41 1.7689e-41 -8.282e-41
1.1519e-41 -1.6544e-41 0.0455973 -0.0015635989 0.031982098 0.045924127 0.011306435 0.036138773
0.07477292 -0.00031622866 -0.02307371 -1.3672e-41 2.0701e-41 -5.4181e-41 1.7073e-41 1.9425e-41
-1.144e-41 2.502e-41 3.7867e-41 5.4667e-41 1.19688e-40 1.04401e-40 -4.3132e-41 1.11815e-40

conv2.conv.bias f4 [32]
00000000: fa3f 32bd 749d 223d 203b 363d 1591 39b5
00000010: 4f70 57bc 43af 2a3d f3f0 2539 4398 1cb8
00000020: 0a11 32bd a587 a3b9 0ae1 c0b9 6a4a b83b
00000030: 6101 00ae b07f 0fa6 39d2 413d 8f2a 813d
00000040: 2f6b 5f3d 33b0 b9bb 9999 45ab d2c6 abbc
00000050: 2444 5abc 6a8a fa3c a4e1 4dbb daf9 523c
00000060: b2c2 90bc 7e84 0f3d b3bd c839 de7f 503d
00000070: 89f5 d1bc d77d 233c 4731 143d 106b 3c3d
-0.043518044 0.03970094 0.04448998 -6.912899e-07 -0.013149335 0.04167105 0.00015825387 -3.7335103e-05
-0.04347328 -0.00031190846 -0.0003678876 0.005624105 -2.9105055e-11 -4.978614e-16 0.047319625 0.063069455
0.054545578 -0.0056667565 -7.020162e-13 -0.020968828 -0.01332191 0.03058358 -0.003141501 0.012876952
-0.017670963 0.035038464 0.0003828831 0.050903194 -0.025629776 0.009978733 0.036179807 0.04600054

conv3.conv.weight f4 [32, 32, 3, 3]
00000000: cb5b 26bd 28ba 4fbc 8951 023c 62a9 72bc
00000010: 80c3 35bc 6ce9 f7bb 248e d3bc e7c2 02bc
00000020: 72ba 843c 5715 123d 9fc7 8b3c 6173 ed3c
00000030: 8df1 953c f6ab bb3a c3c9 273c 5e10 ea3c
00000040: 68c7 363c b717 7a3c 6812 1f3c 5eba 273c
00000050: 2ccf c73b ae2d a73c e795 313c 542b 853b
00000060: 6ec8 4c3d d8f5 b73c 3e86 a63c 02c6 0080
00000070: 733a 0080 da86 0000 1b71 0080 aa82 0000
00000080: 3325 0080 3871 0080 13b5 0000 64d2 0000
00000090: 44a0 f738 1a16 99ba d357 973b da16 323c
000000a0: 1734 ab3b 1b54 933b 4664 303d 6d51 7c3c
000000b0: 3d17 9a3c c6cc f23c caf4 193c 94b8 c23b
000000c0: b6aa 6c3c cfe6 da3b e077 26bb dfa9 c93c
000000d0: ef71 673c 987d e73b 7849 3338 db5d a039
000000e0: 7195 8b39 ee48 bf37 1499 4339 6a52 6039
000000f0: 74fa 33b8 0ea7 2839 902b c538 a70b cc13
00000100: 68cb 8e13 66c2 3694 c411 8594 8d68 0a14
00000110: c14d 4e14 08c4 2c14 6b44 6c14 42c8 df12
00000120: 920e 153b 5414 3e3a b2f6 aabb d025 423c
00000130: 0020 fb3a d520 c33b 93ef c43c a5ba a73b
00000140: d0c7 033c 4b6e 0080 989e 0000 ef0a 0080
00000150: 7072 0000 6e73 0080 ed98 0000 e168 0080
00000160: b83a 0080 731a 0080 c268 4abd cf6a 0abc
00000170: 73b1 4a3c 1c81 dcbb b6ca 8538 0e87 373c
00000180: ba40 87bc 96e6 dfbb b584 df3c 363a fcbc
00000190: 8c3b 39bc 709a 52bc c1a2 c7bc 7c56 c1bb
000001a0: 5a79 5eba 4fdb 41bd f2e5 35bc e836 8fbc
000001b0: 48f5 0000 cf03 0100 0c2f 0080 0afc 0000
000001c0: 8889 0080 1dc0 0080 956b 0000 0929 0000
000001d0: 9ef2 0000 4002 0000 2d87 0080 4f37 0000
000001e0: ec4d 0080 6ac1 0000 3a25 0080 0377 0080
000001f0: 8028 0080 02a5 0000 0a6f 273d fe9f bc3c
00000200: 7d25 183d 2a04 1dbc efc4 22bb dc0d 533b
00000210: 0156 f0bc 2b77 9bbb 6b0d 84bb 0189 f33b
00000220: 4f28 b53b db33 843c 821e ae3b 0e08 16bb
00000230: d9d8 193c 50e2 de3c cfd1 883c e0ef 0b3d
00000240: 21a9 9f3c 9840 5d3c 355a 973c d73b 713c
00000250: 5353 cb3b 1438 563b a54f c13c 85b8 893c
00000260: 7821 8a3c 7b35 7abb 5f77 e33b 32f8 a03c
00000270: fc07 8bbb 97ea 63bb 8a0f f139 b532 54bc
00000280: 1345 efbb 6836 22bb c92d 0180 458f 0080
00000290: d70c 0180 b5e8 0080 fa00 0080 ef9e 0000
000002a0: fcbf 0080 591f 0080 a2ab 0080 be03 ff3c
000002b0: b0ad a6ba 04a2 9c3c c6e8 663c ae68 8db7
000002c0: 5a41 123d 8c12 333c 2e56 233c 299b 493c
000002d0: c0c8 603c 481e 943a c739 6b3a 47fa 573c
000002e0: 3bd3 0a3b 0ce1 0e3b 143d 9a3c 2e6d 083c
000002f0: 80c8 153c fdbf 0a3d 33c8 953c 02fc 603c
00000300: bb3c b83c f046 8d3c b50a 893b be38 153d
00000310: 786c 7a3c 1921 f53b 7a12 05b7 d1cc a5b6
00000320: aa22 2cb6 aab3 8cb7 62cc 2db7 0c1e b0b6
00000330: 9c72 a9b7 b6a4 48b7 9b73 c6b6 76c7 033d
00000340: 4a91 fe3b cb25 823c bcbc d23c 6b32 383c
00000350: e179 823b a215 133d 6b0a 093c b3ff ab3c
00000360: 7f47 40bb d5e7 deba c3e7 033c 5fc2 27bb
00000370: e199 07bc 4f4b eab9 4cd3 073c 7f7a 06bb
00000380: dc36 3fbb bf7c b83c c461 523c 70a5 843a
00000390: d62d 023d 0165 773c b642 f93b 31a4 8b3d
000003a0: 31b7 033d 81e2 b53c d305 863c 5f52 e0bb
000003b0: 25bc d33b 082d 9c3b bcbd 94bc b7b4 bbbb
000003c0: 85f3 843c 0e49 b8bb 82af 913b eb16 903d
000003d0: 0bea c73c d11d c33c 326c 0e3d ee57 883b
000003e0: 849f 853b 0599 253d bff3 3f3c 3501 093b
000003f0: eedb e83b 2d68 ee3b 3033 12bb 3c32 843c
-0.040614884 -0.01267866 0.00795401 -0.014810892 -0.011093974 -0.007565668 -0.025824614 -0.007981039
0.016202185 0.035664883 0.01706296 0.028985681 0.018303657 0.0014318216 0.010240975 0.028572258
0.011155941 0.015264443 0.009708978 0.0102373045 0.006097695 0.020407524 0.010838962 0.004064003
0.049995832 0.022456095 0.020327684 -7.1032e-41 -2.0968e-41 4.8376e-41 -4.0575e-41 4.6873e-41
-1.3345e-41 -4.0615e-41 6.4957e-41 7.5474e-41 0.000118077296 -0.001167956 0.0046186238 0.010869706
0.0052247155 0.00449611 0.04306438 0.015400273 0.018809909 0.02963866 0.009396741 0.0059424136
0.0144449975 0.0066803466 -0.002540104 0.024617134 0.014126285 0.0070645325 4.274535e-05 0.00030587506
0.00026623489 2.2802935e-05 0.00018653675 0.00021393006 -4.291018e-05 0.00016083961 9.401806e-05 5.150833e-27
3.6046414e-27 -9.22699e-27 -1.3436575e-26 6.9878385e-27 1.04156764e-26 8.722441e-27 1.1928448e-26 1.4122646e-27
0.002274428 0.0007250954 -0.0052173967 0.0118498355 0.0019159317 0.0059548416 0.02404002 0.0051186853
0.0080432445 -3.9566e-41 5.6893e-41 -3.922e-42 4.1052e-41 -4.1408e-41 5.486e-41 -3.7623e-41
-2.1064e-41 -9.488e-42 -0.04941631 -0.008448317 0.012371409 -0.006729258 6.379692e-05 0.011201633
-0.016510356 -0.006832908 0.02728496 -0.030789476 -0.011305701 -0.012854204 -0.0243696 -0.0059002023
-0.0008486711 -0.04732829 -0.0111021865 -0.017482236 8.799e-41 9.3202e-41 -1.6877e-41 9.0415e-41
-4.9337e-41 -6.8917e-41 3.8593e-41 1.472e-41 8.7035e-41 8.07e-43 -4.8492e-41 1.9841e-41
-2.7953e-41 6.9384e-41 -1.3354e-41 -4.2693e-41 -1.4529e-41 5.9194e-41 0.04087738 0.023025509
0.037145127 -0.009583512 -0.002483662 0.0032204306 -0.029337885 -0.0047444305 -0.00402992 0.0074321036
0.005528487 0.016138008 0.0053136954 -0.0022892985 0.009390079 0.027207524 0.016701607 0.03416431
0.019489827 0.01350417 0.018475631 0.01472374 0.0062050014 0.0032687234 0.023597548 0.016811619
0.016861662 -0.003817885 0.0069417204 0.019649599 -0.004242895 -0.0034777278 0.0004597868 -0.012951543
-0.0073019355 -0.0024751667 -1.0826e-40 -5.1395e-41 -9.6442e-41 -8.348e-41 -3.5e-43 5.7015e-41
-6.8871e-41 -1.1245e-41 -6.157e-41 0.031129714 -0.0012716558 0.019120224 0.014093583 -1.6857255e-05
0.035706855 0.010929715 0.009969277 0.0123050595 0.0137197375 0.0011300528 0.0008973148 0.013182229
0.0021183032 0.002180162 0.018827952 0.008326812 0.009142041 0.0338745 0.018283939 0.013731958
0.022489896 0.01724574 0.0041821846 0.036431067 0.01528465 0.007480752 -7.93172e-06 -4.941227e-06
-2.5650174e-06 -1.6772963e-05 -1.035919e-05 -5.2487067e-06 -2.0199739e-05 -1.1959279e-05 -5.914318e-06 0.032172643
0.0077687846 0.015887162 0.025724761 0.011242489 0.0039818143 0.035909303 0.0083643 0.02099595
-0.002933949 -0.0017006347 0.008050862 -0.0025598032 -0.008276434 -0.00044688067 0.008290123 -0.002051979
-0.0029176986 0.022520421 0.012840692 0.0010120105 0.031781994 0.015099765 0.0076068295 0.068184264
0.032157127 0.022202732 0.0163602 -0.006845757 0.0064616376 0.0047661103 -0.018156879 -0.00572833
0.0162294 -0.005623943 0.004445971 0.07035621 0.024403593 0.023817929 0.03477115 0.0041608727
0.0040778536 0.040429134 0.011715828 0.002090526 0.007106296 0.0072756023 -0.0022308342 0.016137235

conv3.conv.bias f4 [32]
00000000: 6914 7d3c ab5d b93c e765 a73c 7a34 d5bc
00000010: 0fb5 feb8 4368 173c a21e 4bbd 68e6 563c
00000020: d8ca 5aba 2447 f8a3 13e1 fe3c bf2c 8bb6
00000030: ce09 2abd 7147 753b 1cb6 e73c f735 293c
00000040: 42e9 183a 7b3b 8aa1 c419 00bd bcb9 05b8
00000050: 6c1c 3c3c b7d4 f2bc fa85 d2bc 7d67 169b
00000060: 3752 13a6 68ca 2cb4 e25a 03bb 7597 0ca4
00000070: cac0 023c 1adf 15bb 3e77 4a3d c6ec 04bd
0.015446761 0.022627672 0.020434333 -0.026026 -0.000121453886 0.0092411665 -0.04958976 0.013116457
-0.0008346266 -2.6918343e-17 0.031113183 -4.147732e-06 -0.041513257 0.0037426616 0.028285079 0.010327808
0.0005833098 -9.366988e-19 -0.031274572 -3.188265e-05 0.011481386 -0.029642446 -0.02569865 -1.2441148e-22
-5.111229e-16 -1.6092383e-07 -0.0020043184 -3.048595e-17 0.007980535 -0.0022868575 0.049430124 -0.032452367

conv4.conv.weight f4 [32, 32, 3, 3]
00000000: db9e 503c cdc5 123b bd39 00bd 36ef 2d3d
00000010: edd7 043d 17c0 a9ba 4b37 443d d79b 153d
00000020: 9803 6d3b 4b0a 153c 7fb9 87bb a33b 5dbc
00000030: 0036 793c c2c5 313a d982 19bc 31e8 913c
00000040: a9ad 273b 60eb 07bc 3e64 823c e6c7 863c
00000050: c3b6 c63b 8ea5 113d 96ab f73c 117c e13c
00000060: 137d 063d 2424 143d 1115 d53c a808 4bbd
00000070: 23a8 95bd f077 06be 141b 263c d33c 57bc
00000080: 96df 97bd 4b4c 323d 4d2e b73c 1149 24bd
00000090: e515 960b 4d50 c082 4657 0000 408c 970f
000000a0: 74a9 7186 d7b4 0080 001e a610 8054 6009
000000b0: da4d 0000 acc4 57bd c029 4cbd 2632 8cbd
000000c0: cbcc b7bc 8b7c 85bc c915 09bd 5a62 c8bc
000000d0: 6521 69bc 2fc5 d6bc 14c8 42bd 1699 87bd
000000e0: b5c6 f8bd 489a 9c3a 8ac9 5abc 3388 88bd
000000f0: f778 643c 2aea 893b 3b3c 39bd 8839 213d
00000100: c5a7 0c3d 89fd c73c 4352 073d 86cd df3c
00000110: 19fb 6e3c f629 bd3c addd 883c 3d27 123b
00000120: 7f7a df38 1498 8938 2526 50b8 4e33 8539
00000130: d6db 5139 80f1 3238 9feb 9339 0595 6f39
00000140: 8d1c 8538 3777 0000 fd2e 0080 eb1a 0000
00000150: 0a01 0100 8bd5 0000 7850 0000 7251 0000
00000160: 0e3c 0080 faeb 0080 1b20 273c 3bb8 e43b
00000170: ab96 9ebc 4424 3d3d 946c 1a3d ecaa 7d3c
00000180: dc39 403d d8be 323d 1857 b23c 13ee 0000
00000190: 7b07 0100 c86d 0080 9ff6 0080 3e35 0100
000001a0: 8502 0180 889a 0080 6d2f 0000 e49c 0080
000001b0: b63e 3f3b cb8e b8bc 376d a2bd 55dd 103d
000001c0: 5e73 2a3c c89b 42bd 3e49 373d bfa2 a73c
000001d0: 32f0 1bbd 407d aabb 2c9f 4239 5c79 173c
000001e0: 9609 22bb bba0 143b 3c42 273c 94b4 7aba
000001f0: 19bd 503b 318f 313c a3d9 583c c754 e33b
00000200: 5a2e 04bd 434d 313d 0546 0b3d 2dd6 37bb
00000210: 869e 5b3d 1924 253d a79b dd3b 5cd9 883c
00000220: 53c4 4f3c 67c8 81bc 5bb6 123d db6e 0c3d
00000230: 12c7 1a3b bc3e 103d 56bf 2b3d 7fb7 ff3b
00000240: 144b 713d 7c55 183d 7f0c 023d ee63 2e3d
00000250: e735 6c3c 0164 e43a 41d1 543d f862 933c
00000260: 3b9d d3ba 1ff3 0000 f7d3 0080 d0db 0000
00000270: bcdf 0000 26d0 0000 dbdc 0000 0cdd 0000
00000280: 04e8 0080 8c58 0000 3d7a 08bd 06b5 84bd
00000290: 8cc3 12be 92cb d93c 7299 5dbb 3b5e afbd
000002a0: 5035 123d 972d 0d3c dd5a 9abd a705 5d89
000002b0: 698c 0f86 580b 0700 fc03 8f0a f2e6 0907
000002c0: a53e 0d80 422e b20a f7fc 3207 47cc 1780
000002d0: 957d a73c 8b7b d13c 559e af3c 3e8e 963c
000002e0: 7667 ec3c 8046 d13c 609c 5e3c f1e6 b33c
000002f0: 7f6b a83c c032 28bd 3a45 67bd 5383 01be
00000300: 915a 4d3c 7703 c2bb f335 7fbd afe8 023d
00000310: 0bff c43c 48d5 05bd 2472 85bc 6fa0 f6bc
00000320: fbc5 92bd 99e6 a53c 1e41 793c 487b 1fbd
00000330: 60a4 283d 6dd8 d33c f81b 49bc 697b 0000
00000340: c607 0100 5688 0080 2bdb 0000 caf7 0080
00000350: 1134 0100 6067 0180 da9c 0080 f686 0080
00000360: e191 0080 5289 0080 f919 0180 97ea 0000
00000370: 97e4 0000 812f 0180 fbf4 0080 6859 0000
00000380: 444e 0000 1652 0080 35ea 0000 4e7a 0080
00000390: 6352 0080 5bcb 0000 5348 0080 5b56 0000
000003a0: a1c1 0080 acb5 0000 3c18 0d83 9ddf a902
000003b0: 29ed f302 0f1d 8103 eab0 1b83 bc0c d183
000003c0: 6b55 8301 3523 c383 5866 8703 9628 0180
000003d0: 6c82 0000 cd14 0000 805d 0080 dcad 0080
000003e0: 56ce 0000 1ae7 0080 b348 0000 d3cd 0000
000003f0: 26a8 cf3b 0726 1ebb f9da 70bc 0e0a 85ba
0.012733187 0.002239573 -0.031305064 0.042464457 0.032432485 -0.0012950924 0.047904294 0.036525574
0.0036165472 0.009096692 -0.004141986 -0.013502988 0.0152106285 0.00067814824 -0.009369575 0.017810913
0.0025585687 -0.008295864 0.01591694 0.01645274 0.0060642674 0.035558276 0.030233186 0.02752498
0.032834124 0.03616728 0.026011022 -0.049568802 -0.0730746 -0.1313169 0.010138292 -0.01313706
-0.074156925 0.04352979 0.022360945 -0.040108744 5.781084e-32 -2.8257955e-37 3.1308e-41 1.4943772e-29
-4.5451557e-35 -6.4873e-41 6.552168e-29 2.7002751e-33 2.7928e-41 -0.052677795 -0.049844503 -0.068455026
-0.02243652 -0.016294738 -0.03346804 -0.02446096 -0.014229153 -0.026217071 -0.04755409 -0.06620996
-0.12147275 0.0011947835 -0.013353715 -0.06666603 0.013944856 0.0042088227 -0.045223456 0.039361507
0.034339685 0.024412887 0.033037435 0.02731968 0.0145862335 0.023091298 0.016707266 0.002230122
0.00010656285 6.560996e-05 -4.962659e-05 0.00025405962 0.00020013688 4.266342e-05 0.00028213576 0.0002284833
6.347252e-05 4.2766e-41 -1.6856e-41 9.656e-42 9.2208e-41 7.6605e-41 2.8867e-41 2.9217e-41
-2.1544e-41 -8.4652e-41 0.010200526 0.00697997 -0.019358953 0.046177164 0.037701204 0.0154826455
0.04693018 0.043639034 0.021770045 8.5405e-41 9.4519e-41 -3.9382e-41 -8.8471e-41 1.10935e-40
-9.274e-41 -5.5435e-41 1.7013e-41 -5.6282e-41 0.0029181666 -0.022529026 -0.07930987 0.03536733
0.010403482 -0.047511846 0.044747584 0.020463346 -0.038070865 -0.0052029192 0.00018560578 0.009245243
-0.0024724952 0.002267881 0.010208663 -0.00095636514 0.0031850992 0.010837362 0.013235482 0.0069375965
-0.032270767 0.043286573 0.034002323 -0.0028051243 0.053617977 0.04031763 0.00676294 0.016705208
0.012681085 -0.01584263 0.03581844 0.034285408 0.002361719 0.03521608 0.04193052 0.007803857
0.05890949 0.0371909 0.0317502 0.04257577 0.014417148 0.0017424823 0.051957373 0.017991528
-0.0016144881 8.7215e-41 -7.6039e-41 7.8854e-41 8.0261e-41 7.467e-41 7.9228e-41 7.9297e-41
-8.3232e-41 3.1765e-41 -0.0333197 -0.0647984 -0.14332408 0.026586328 -0.0033813384 -0.08562895
0.035695374 0.0086168265 -0.07536862 -2.6604565e-33 -2.6998468e-35 6.46918e-40 1.3771898e-32 1.0374603e-34
-1.216334e-39 1.7158177e-32 1.3465571e-34 -2.185497e-39 0.020445624 0.025571605 0.021437803 0.018378373
0.028857928 0.025546312 0.013587087 0.021960707 0.02055907 -0.041064024 -0.056462504 -0.12647752
0.0125338 -0.005920823 -0.06230731 0.031960186 0.024047395 -0.032674104 -0.016289778 -0.030105798
-0.07166668 0.02025156 0.015213279 -0.03893593 0.041172385 0.025860036 -0.012274735 4.4271e-41
9.4624e-41 -4.8908e-41 7.8623e-41 -8.889e-41 1.10513e-40 -1.2892e-40 -5.6268e-41 -4.8415e-41
-5.2331e-41 -4.9261e-41 -1.01153e-40 8.4155e-41 8.2003e-41 -1.08877e-40 -8.7882e-41 3.2073e-41
2.8076e-41 -2.9447e-41 8.4018e-41 -4.3875e-41 -2.9555e-41 7.295e-41 -2.5945e-41 3.0979e-41
-6.9461e-41 6.5172e-41 -4.1463996e-37 2.4960666e-37 3.5841764e-37 7.58861e-37 -4.5753493e-37 -1.228684e-36
4.824437e-38 -1.1469153e-36 7.958084e-37 -1.06395e-40 4.6787e-41 7.462e-42 -3.3541e-41 -6.2369e-41
7.402e-41 -8.2904e-41 2.608e-41 7.3836e-41 0.0063371835 -0.0024131553 -0.014700645 -0.0010150091

conv4.conv.bias f4 [32]
00000000: 62d0 463c 126e 4fba d3e4 94b5 b29b 289d
00000010: 072b 0fb9 81f6 983a 08dd 67b9 12da 66a5
00000020: 1e92 4a3d f75b 3e3c c8ca b8bb 77a1 cb3c
00000030: 306b a4bb 4060 4dbb 2d99 4dbb f4d9 673c
00000040: 5c70 deb9 2092 a43c e44e 153c 079a d73c
00000050: 4256 3dbb aca1 9abb ec39 123b 00a2 98bb
00000060: 6435 36ab 7b5c af3c 74f8 5b3c 8e3c 02ba
00000070: 7f24 5a3b 013d 403c b98d e93b e35d 0c92
0.012134643 -0.0007912825 -1.1093456e-06 -2.2315107e-21 -0.00013653572 0.0011670144 -0.00022112217 -2.0023205e-16
0.049455754 0.011618606 -0.005639408 0.024857266 -0.0050176606 -0.0031337887 -0.0031371817 0.014151085
-0.00042426854 0.02008921 0.009113047 0.026318563 -0.0028890525 -0.00471898 0.0022312356 -0.004657984
-6.4733483e-13 0.021406403 0.013425935 -0.000496813 0.0033285914 0.011733294 0.0071274904 -4.4291935e-28

conv5.conv.weight f4 [32, 64, 3, 3]
00000000: 9ebc ecbb 28f5 4cba 8095 a93b b255 02bb
00000010: 7628 203b 1d7f 883b 2cf1 4b3b 7f11 5e3b
00000020: fd50 e839 79c7 3dba 7d7e 1c3a 755e 523a
00000030: 8524 263a a551 9a3a 724e b33a f142 323a
00000040: 78b6 963a 364e a63a 1728 c2bb 2a70 ddb9
00000050: 53bc 483b 2c96 c6ba ec9b 883a 0582 de3a
00000060: 29c3 d83a 7e2a 4b3a 2518 eaba 2bed 06bb
00000070: e15a 2ab8 d99d 7d3a e185 d4ba 7ffe d43a
00000080: 8d71 26ba 94b9 ceba 0529 d5ba 5081 d1bb
00000090: f407 0000 7d8d 0080 bef0 0000 bf3e 0080
000000a0: b200 0000 a6e0 0080 dc79 0080 3ce1 0000
000000b0: 8f6f 0080 923d f939 9a6a 8dbb a0a1 20bc
000000c0: 9ab1 b2bb 3790 a4bb c0fe a6bb 290b 17bc
000000d0: 3023 9fbb 274d 5639 973c a2bb ad71 67bb
000000e0: 9336 87bb 21b9 a3bb 9647 c3b9 1528 333a
000000f0: a96b deba 993f 803a d4fb 9b3b 40d2 373b
00000100: 26b4 463b 6e70 113b 961c 723b 5bac 263b
00000110: 74a7 663a 1e86 a63b 6155 463b 7309 5b3a
00000120: c415 07ae 821c 24ac 0c6a 3c2c 79f8 1eae
00000130: 3bb7 33ad aa3f 8cac a220 82ad 69ae 31ac
00000140: 1fb1 32aa 49f4 0000 b910 0100 3c15 0080
00000150: 6d43 0180 a3b1 0000 1783 0000 fb54 0000
00000160: b376 0180 54ad 0080 cdff 12bc 36c0 8eb9
00000170: ef4a e43b a5dc 53ba 8800 533b d521 533b
00000180: 4fc6 9d3b bce9 6a3b 0772 50bb 287c 0000
00000190: 21ff 0080 c108 0000 6f5a 0000 7a58 0080
000001a0: 6d0f 0000 fe41 0100 7215 0080 2135 0100
000001b0: afcf 85bb c399 46ba 286d 1739 4461 18bb
000001c0: e319 d73a 91f2 db3a c3a5 5139 e577 ca3a
000001d0: 8230 0a3b fe19 c638 f2fe e7b8 79e8 1537
000001e0: df60 5139 649f 9fb8 a75e 3139 6958 4939
000001f0: c532 fdb7 d37a 0639 de1f 0cbc f1fb 793a
00000200: cadc cc3b 2cfc c5b9 5bd8 803b 912b 473b
00000210: 0e25 9c3b 33aa 623b e61d afba 4219 c8bb
00000220: bf32 c738 5a3b 043b 1cd2 a6b9 e377 f23a
00000230: fe13 8f39 c5de 8f3b 5a18 153b 094f e8ba
00000240: 8b20 ebbb e164 a0bb babe 8dbb f932 acbb
00000250: 8fba 8bbb daa3 cdba 7667 ad3a 47ad a7ba
00000260: 334b 99b7 d1cc 0080 5f07 0100 f432 0080
00000270: 491b 0180 0525 0080 6416 0100 59a2 0000
00000280: c582 0000 dc0a 0180 70c5 1ebc 3d8f a539
00000290: 24ad bc3b d66f afbb fa1c 333b 9f0e df3b
000002a0: bff0 b4ba f4a3 9f3b 690e f33b 616d 0080
000002b0: 322c 0080 d641 0000 e0c2 0000 6e7e 0000
000002c0: 44e2 0000 455c 0080 621b 0080 3ae1 0080
000002d0: 17f4 2cb9 1074 1639 a42b 543a 86c5 adb8
000002e0: fcaf a0b8 3db7 1139 0863 f639 610b 7d3a
000002f0: c32e bb39 ef00 c2bb f5d5 2cba df11 a53a
00000300: 731b a4bb ba09 483a e500 89ba 120a 7bbb
00000310: 105d c2ba 49eb 8cbb b18a 57bb c1a5 e838
00000320: 6168 df3a 7146 10bb aa2a 833a e74b 303a
00000330: 556a 13ba 5855 33ba 97f5 17bb 9737 0100
00000340: e69c 0180 54d6 0080 2e11 0100 fbce 0080
00000350: b02b 0180 73aa 0180 3c70 0100 413c 0180
00000360: b5df 0080 fcc6 0080 3e49 0180 b0d7 0080
00000370: 0dbb 0080 d594 0100 22f8 0000 8bc3 0100
00000380: 3dd0 0000 3db5 0080 cf84 0080 a70e 0180
00000390: e53f 0100 4c53 0180 7a56 0080 7539 0000
000003a0: c417 0080 7556 0100 83bb 9981 165c d601
000003b0: 3b97 c500 214a f581 ee8d b981 aee6 ac01
000003c0: e148 5101 8354 a980 f8c2 ba80 4b14 0180
000003d0: 885e 0000 92f3 0000 e406 0000 5c3a 0000
000003e0: 809f 0000 4f6b 0080 9b7d 0000 eec4 0000
000003f0: 9838 d5b9 9188 83ba a3eb 9ab9 be67 033a
-0.0072246334 -0.00078185135 0.0051752925 -0.0019887504 0.002443818 0.0041655437 0.0031119091 0.003388494
0.0004431083 -0.00072395016 0.0005969776 0.00080249395 0.00063378393 0.00117736 0.0013679995 0.0006800136
0.0011498472 0.0012688104 -0.0059251892 -0.00042235974 0.0030629828 -0.0015150956 0.0010422445 0.0016976005
0.0016537654 0.0007750167 -0.0017859979 -0.002058814 -4.0615796e-05 0.0009674705 -0.0016214215 0.0016250162
-0.0006349318 -0.0015771859 -0.0016262835 -0.006393589 2.853e-42 -5.0756e-41 8.6362e-41 -2.2509e-41
2.5e-43 -8.0589e-41 -4.3715e-41 8.0799e-41 -4.002e-41 0.00047538854 -0.0043156864 -0.009804159
-0.0054533007 -0.0050220746 -0.0050962865 -0.009218969 -0.0048564896 0.00020437372 -0.0049510705 -0.0035315559
-0.004126379 -0.0049964343 -0.00037246634 0.0006834281 -0.0016969341 0.0009784579 0.004760245 0.0028048903
0.003031978 0.0022192257 0.0036943308 0.0025432322 0.0008798756 0.005081906 0.0030263292 0.0008355595
-3.0714778e-11 -2.3321627e-12 2.6775275e-12 -3.614573e-11 -1.0215657e-11 -3.9861075e-12 -1.479378e-11 -2.525003e-12
-1.5871027e-13 8.7633e-41 9.7834e-41 -7.617e-42 -1.16023e-40 6.3724e-41 4.7026e-41 3.0485e-41
-1.34417e-40 -6.2178e-41 -0.0089721205 -0.0002722756 0.0069669406 -0.000808189 0.0032196362 0.003221621
0.0048149 0.0035844883 -0.0031806247 4.4539e-41 -9.1523e-41 3.14e-42 3.2441e-41 -3.174e-41
5.534e-42 1.15509e-40 -7.693e-42 1.10895e-40 -0.0040835957 -0.0007576013 0.00014441146 -0.0023251334
0.0016410913 0.0016780664 0.00019993544 0.0015447108 0.0021086042 9.446217e-05 -0.000110624256 8.935219e-06
0.0001996788 -7.6113996e-05 0.00016915296 0.00019201789 -3.0183592e-05 0.00012824991 -0.00855252 0.00095361384
0.006251906 -0.0003776265 0.0039320416 0.0030390958 0.0047651595 0.003458631 -0.0013360351 -0.0061065266
9.498512e-05 0.0020176978 -0.0003181853 0.0018498864 0.0002728998 0.00439057 0.002275011 -0.001772375
-0.0071755103 -0.004894838 -0.004325715 -0.0052551 -0.004264183 -0.001568909 0.0013229686 -0.001279273
-1.8274039e-05 -7.3474e-41 9.448e-41 -1.8279e-41 -1.01624e-40 -1.328e-41 9.9868e-41 5.824e-41
4.6911e-41 -9.5731e-41 -0.009690627 0.00031577973 0.0057579447 -0.005353908 0.0027330504 0.006807163
-0.0013804658 0.0048718397 0.0074174893 -3.9238e-41 -1.5854e-41 2.3617e-41 6.9908e-41 4.5354e-41
8.1169e-41 -3.31e-41 -9.823e-42 -8.0796e-41 -0.00016494129 0.00014348351 0.0008093661 -8.2860744e-05
-7.662174e-05 0.00013896539 0.0004699456 0.00096528797 0.0003570226 -0.0059205214 -0.00065931614 0.0012593827
-0.005008155 0.0007630844 -0.0010452537 -0.0038305563 -0.001482876 -0.004300509 -0.0032889063 0.00011093496
0.0017044657 -0.0022014643 0.0010007222 0.00067251775 -0.00056234497 -0.00068410253 -0.0023187154 1.11777e-40
-1.4812e-40 -7.6886e-41 9.7998e-41 -7.425e-41 -1.07508e-40 -1.52981e-40 1.32098e-40 -1.1345e-40
-8.0251e-41 -7.1382e-41 -1.1811e-40 -7.7374e-41 -6.7101e-41 1.45226e-40 8.9013e-41 1.61983e-40
7.4702e-41 -6.5016e-41 -4.7643e-41 -9.7092e-41 1.14757e-40 -1.21717e-40 -3.1022e-41 2.0612e-41
-8.525e-42 1.2285e-40 -5.647239e-38 7.874332e-38 1.8145844e-38 -9.0105156e-38 -6.8161926e-38 6.351383e-38
3.8439525e-38 -1.5550516e-38 -1.7151344e-38 -9.9115e-41 3.3911e-41 8.7377e-41 2.472e-42 2.0935e-41
5.7218e-41 -3.8495e-41 4.5059e-41 7.0645e-41 -0.00040668692 -0.0010035207 -0.00029548732 0.0005012712

conv5.conv.bias f4 [32]
00000000: e689 043c 31c7 95bc 9fe4 21bc 823d f23c
00000010: 935f 84b1 2fa1 4bb9 5d42 e33c a901 ccba
00000020: 0c53 3d3c fe2a b33c 4541 74b8 5ee9 a9bc
00000030: 0606 013d 67c4 883c 28e8 478d 1add c0ae
00000040: 1d71 d73c 92de db3c aba5 19ba a4a9 f687
00000050: 46e8 c73c 358a 743c a873 fb3c ada2 163d
00000060: 788b 603c 0fe9 76ba c784 533c c289 c6bb
00000070: 0367 7d3c 1ae8 ce3b 4c1c aa3c 6ffa a1ba
0.008089518 -0.018283458 -0.009881168 0.029570345 -3.852571e-09 -0.00019419634 0.027741605 -0.001556446
0.011555444 0.021871086 -5.823492e-05 -0.020741161 0.031499885 0.016695214 -6.1601057e-31 -8.770425e-11
0.026299054 0.026839528 -0.0005861173 -3.7113672e-34 0.024402749 0.014925529 0.030694798 0.036776233
0.013705127 -0.0009418884 0.012910075 -0.0060589025 0.015466454 0.0063142898 0.020765446 -0.001235796

conv6.conv.weight f4 [32, 64, 3, 3]
00000000: 7cb6 6cbb 199c 703b 8066 8b3c cfb8 1abc
00000010: b9f2 ce3b 4ec4 e03c 6806 56bc 5b71 4b3c
00000020: c655 9e3c a2e3 1f3c 2917 a73c 9ba9 913c
00000030: fdee 873c 0f29 ff3c 5699 cd3c 315b 483c
00000040: 1a0b 8b3c 345e a03c 4e6f ee3b b772 723c
00000050: fce2 003c c5ee 0b3c 0f80 c03c 0d16 1a3c
00000060: beb5 283c 9bd6 793c 46f8 1a3c 1511 0080
00000070: 6c60 0000 77aa 0080 859e 0000 4ba9 0080
00000080: 9115 0080 78b9 0000 fd7e 0080 6054 0000
00000090: a191 89bb 8971 653a a7dc bbba 0549 043c
000000a0: 6f83 a23c c3cd 603c 638c 463c 94bb 0a3c
000000b0: 5bd7 4d3c 932a c5bb 4edb 063c 39f1 823c
000000c0: 859f b73b 1e17 883c 97d8 b03c 71ed c7b7
000000d0: 7792 0d3c a057 e83b 4eaf aa39 0c9b e937
000000e0: e2f6 9638 34f7 2c39 d193 8bb8 6c7b 29b8
000000f0: c4fd ab39 0297 e838 bcfc 1d39 e780 9695
00000100: 79d7 a894 9502 8315 dc4d 9395 3c60 0295
00000110: 87bd 8115 900e 5895 5e75 8f94 e102 5015
00000120: fb0c d3ba 41b5 4fbc 92ac 78bc b118 143c
00000130: 8726 b43a 8c97 deba d833 e13b 4f18 ff3a
00000140: 0fd2 0e3b d7a1 0080 6530 0080 9204 0080
00000150: fb62 0000 a49f 0000 abc3 0000 45be 0080
00000160: b4c3 0080 cdbb 0000 b95d 30bc 7635 84bb
00000170: 0249 59bb c2df 0bbb b587 e63b d64a 253c
00000180: de98 99ba f70c 133c e335 103c 4a1d a4bb
00000190: b74c dabb dca5 24bc a913 91b9 4552 28bc
000001a0: 50f7 2cbc 2f1e 093b ed21 0ebd c21e 2dbc
000001b0: 3225 0080 b224 0080 09f9 0080 a7cd 0000
000001c0: fbe9 0080 2231 0000 f0c5 0000 a359 0080
000001d0: 48a4 0000 7753 0000 2964 0000 2719 0100
000001e0: a8e7 0080 e343 0080 7f39 0180 a616 0180
000001f0: 646a 0000 f485 0080 39d0 913b 31b6 25bb
00000200: 9182 943b 666e 833b 2a97 efb8 e03f 173a
00000210: 9b51 bdbb 558b 52bc 2221 08bc 05cf 083c
00000220: 792c 763c 166f 463c 55d5 8b3c 940d e93c
00000230: 20f2 b93c fdd6 4e3c 9e90 a53c 2dc6 723c
00000240: b208 403c 1cbb ad3c 3f65 913c 18fd e33b
00000250: bee3 7f3c 380e f53c a362 1e3c cd31 813c
00000260: 7ad3 e63b 3313 6bbb dec3 0f3c 19b9 863c
00000270: 5cea 93bb 98c9 e63b 60a0 c43b d948 3bbb
00000280: 246f 253c 7f95 dd3b 5407 0080 543d 0000
00000290: 017e 0080 af10 0000 1f5f 0080 ce69 0080
000002a0: 1650 0000 946d 0000 2c47 0080 60ec 8239
000002b0: e09b 4e3c d68a b9bc 50b0 c5bb 9fed cbbc
000002c0: b7da 48bc a5f4 7fbc 24a2 153c 2105 87bc
000002d0: 22e4 2d3c e392 143c 949b 1f3c 91c5 0f3c
000002e0: c079 e33b e2cc f73b a175 f53b 1e09 ec3b
000002f0: bb4d 033c 53cf 823c d35a 8a3c 6092 303c
00000300: 44b5 ab3c efff d13c 517a 883c 710a 333c
00000310: 5223 413c d4ad 443b e24d 7039 1b60 6f39
00000320: 67b1 7939 0633 6839 e361 6639 b008 6d39
00000330: 3d60 4439 68c0 4039 ca76 4739 01a5 893b
00000340: b6db 6dba 5f02 af3c ca99 24bb fed8 193d
00000350: 51ba c13c b6c3 7abc 19f6 df3c 989f fe3a
00000360: 4c73 323b 7195 24bc 34b2 c2bb 1666 0fbc
00000370: 0317 f7ba c7e1 663c 641b 98bb 8f78 7cbb
00000380: 5700 e43a 95e6 873b 906f 983b 1086 c03a
00000390: bb2d 843c 09e2 c23c f222 933c 6bac 583c
000003a0: 6e68 ad3c ade6 5c3c c6c6 9c3b 035c 6f3b
000003b0: 5eb2 00bb 80ac 1a3c 6e01 eb3b a013 5b3b
000003c0: e8a1 61bb 45cd f4ba 7a18 25bb f581 fa3b
000003d0: c40d 723c fdde 683b c2af 353c 2389 b63c
000003e0: 9420 ac3c 27db 063c 477c 943c cfe8 233c
000003f0: 516b 1dbc c893 01bc d9b3 643b 3d22 2c3c
-0.0036119511 0.0036714135 0.01701665 -0.009443476 0.006315556 0.027437355 -0.013063051 0.012417163
0.01932801 0.009758862 0.020396786 0.01778107 0.01659345 0.031147508 0.02509753 0.012228773
0.016973067 0.01957617 0.007276452 0.014797858 0.007866617 0.008540814 0.023498563 0.009404671
0.010297237 0.01524892 0.009458607 -6.128e-42 3.459e-41 -6.1151e-41 5.6866e-41 -6.0731e-41
-7.737e-42 6.6534e-41 -4.5555e-41 3.0268e-41 -0.0041982685 0.0008752575 -0.0014332727 0.00807405
0.019838063 0.013720932 0.012118432 0.008467574 0.012563552 -0.006017038 0.008230997 0.015984165
0.005603733 0.016612586 0.021587653 -2.3833216e-05 0.008640877 0.007090524 0.0003255554 2.7847964e-05
7.198543e-05 0.00016495289 -6.6555695e-05 -4.0407685e-05 0.00032804732 0.000110907495 0.00015066838 -6.078789e-26
-1.7048654e-26 5.291455e-26 -5.949567e-26 -2.6329206e-26 5.2401706e-26 -4.363234e-26 -1.4485603e-26 4.2007537e-26
-0.0016101891 -0.012677492 -0.015177863 0.00903909 0.0013744392 -0.001698242 0.0068726353 0.00194622
0.0021792685 -5.8057e-41 -1.736e-41 -1.64e-42 3.5508e-41 5.7268e-41 7.0192e-41 -6.8256e-41
-7.0205e-41 6.737e-41 -0.010764533 -0.0040346934 -0.0033155088 -0.0021343087 0.0070352205 0.010088643
-0.0011718532 0.008975259 0.00880191 -0.0050083743 -0.006661977 -0.01004931 -0.00027671203 -0.010273521
-0.010557011 0.0020922532 -0.034700323 -0.010566415 -1.3343e-41 -1.3164e-41 -8.9337e-41 7.3774e-41
-8.3936e-41 1.7626e-41 7.1007e-41 -3.2156e-41 5.8933e-41 2.9942e-41 3.593e-41 1.00858e-40
-8.3103e-41 -2.4353e-41 -1.12461e-40 -9.996e-41 3.8166e-41 -4.8053e-41 0.004449871 -0.0025285596
0.0045321663 0.0040109633 -0.000114245646 0.0005769711 -0.0057775504 -0.012850602 -0.008308681 0.008350139
0.015025252 0.012111446 0.017069498 0.028448857 0.022698462 0.012624499 0.02021056 0.014817757
0.011720823 0.021207385 0.017748473 0.0069576614 0.015618263 0.029914007 0.0096670715 0.015770817
0.007044253 -0.0035869598 0.008774726 0.016445683 -0.004514022 0.007043075 0.0060005635 -0.0028577356
0.010097299 0.006762206 -2.629e-42 2.2e-41 -4.5202e-41 5.985e-42 -3.4123e-41 -3.7956e-41
2.873e-41 3.9309e-41 -2.5532e-41 0.00024971645 0.012610406 -0.02264921 -0.006032981 -0.02489358
-0.012259177 -0.015622293 0.009132896 -0.016481938 0.010613473 0.009068224 0.009741683 0.008775131
0.006942004 0.0075622657 0.007490829 0.0072032353 0.008014138 0.015968 0.016889011 0.010777086
0.020960458 0.025634734 0.016659888 0.010927782 0.011788206 0.0030010836 0.00022917197 0.00022828618
0.00023812578 0.00022144252 0.00021970975 0.00022605318 0.00018727868 0.00018382224 0.00019022371 0.004200578
-0.0009073572 0.021363435 -0.002511608 0.037560456 0.023648413 -0.01530545 0.027339028 0.0019426225
0.0027229367 -0.010045395 -0.0059416536 -0.0087523665 -0.0018851463 0.014091915 -0.004641937 -0.0038524007
0.0017395121 0.0041473606 0.004651971 0.0014688391 0.016135087 0.023789423 0.017961 0.013224701
0.02116796 0.013482732 0.004784438 0.003652335 -0.0019637565 0.009440541 0.0071718013 0.0033428445
-0.003442878 -0.0018676898 -0.002519159 0.0076448866 0.01477379 0.0035533302 0.011089267 0.022282189
0.021011628 0.008230961 0.018125666 0.010004236 -0.009608106 -0.007908769 0.0034897237 0.01050621

conv6.conv.bias f4 [32]
00000000: 2211 633c 7861 973c ec85 0ebc 980e c73c
00000010: b788 a93c c159 ff3c 33a8 b3bc 7687 033d
00000020: e486 813b c5b2 323c e173 203c 9835 a63c
00000030: a8ed b93c c4ac 053d 4b00 323d 0afb 1aac
00000040: fd36 d43c 670d a23c 1ded 63bc 00dd 643c
00000050: b9ab e73b 9266 a23c 84bc bb3b 6a75 948f
00000060: a946 d83c fcf5 933c 1c09 1b3d 7edd 073a
00000070: 93f4 ee3b f114 9a3c c443 47b3 094d 813b
0.013859065 0.018479094 -0.008698922 0.024298951 0.020695074 0.031170728 -0.02193079 0.032111607
0.003952848 0.01090688 0.009793253 0.020289227 0.022696331 0.032635465 0.04345731 -2.202407e-12
0.025905127 0.019781781 -0.013911513 0.013968706 0.0070700315 0.0198243 0.00572926 -1.4639153e-29
0.02640088 0.01806163 0.037850484 0.0005182846 0.007292339 0.018808814 -4.639493e-08 0.003945951

conv7.weight f4 [24, 64, 3, 3]
00000000: c79d 2c3c d1ae 833c 8429 363c 0887 533b
00000010: cc7f 8dbc ddc1 283c c4a8 f53b c59e 4fbb
00000020: 5e92 1a3c 0215 8a39 ae15 98b9 d68f 58ba
00000030: 3085 0cbb be0d dbbb c06a 81bb 758e 01ba
00000040: 8347 7fbb 2a4b 18bb 90b7 243b 54ab c23b
00000050: 10c5 4b3b a78c 9439 7510 4e3b 809d bd3b
00000060: 8917 203a 8b32 4039 31c1 173b 4a1f 87bb
00000070: 7349 1f3c d447 99bc f857 6139 2385 5cbc
00000080: 328a dbbb cd36 a53b 209b 88ba 899d 5cbb
00000090: dca4 0000 0884 0000 62df 0080 5d0b 0080
000000a0: 52a2 0000 64e4 0000 18a4 0080 fbe1 0000
000000b0: ef67 0080 7235 9cbb b941 80bb 9796 bdbb
000000c0: 4cc3 6b3b a46d 673b 3ac9 7f3a e03a 0c3b
000000d0: 633a a23a 8068 f1ba c22c 2fbc 0df0 30bc
000000e0: 162c 10bc 0217 12bc 483e 98bc e6f0 fabb
000000f0: f2cd 84bb 56c9 d5bb 634e c6bb 765e 053b
00000100: a49c 3dbb 7f1d 833b 0b56 43bb 24ce b9ba
00000110: 331f 52bb f4b7 3c3c 9c20 0c3b b530 b63b
00000120: d66c 23bb 130a 6dbb aa5e bcba 0a25 0dbb
00000130: 46e5 aebb bc2e ffba 3f65 abba 13e9 77bb
00000140: 35ad 1cbb bb65 223a a100 103b dea7 263b
00000150: ea49 3b39 0757 72ba bb81 943b 2187 bdba
00000160: 55a3 953a f996 9d3a b8b6 1a3b c113 3bbb
00000170: 1ba5 9eba c98d 8e3a 6a00 153b 21e4 51bb
00000180: f69c adb9 c1f6 a83b ad68 efba d883 2ebc
00000190: 62e7 203b c3d5 0a3c 1810 48bc 807a dcbb
000001a0: 5145 8bbb 0662 a6bc 0a0b c0bb 8985 60bc
000001b0: ae10 1c3b 6eda c53a d9b2 fe3a 553a b03b
000001c0: 95d0 c03b e6ae b93b 3745 413b 9394 503b
000001d0: 1681 2e3b 1e59 0080 9584 0080 dbe9 0000
000001e0: 46cc 0000 4e58 0080 4647 0000 e801 0080
000001f0: 467e 0000 79eb 0000 7f5b 6c3b 4b81 6d3b
00000200: 569b 6b3b 70f6 6b3b 5e23 6e3b ce08 6d3b
00000210: 5c2e 6a3b cbb3 6c3b ce27 6c3b 3642 51bc
00000220: 97fe 6abc 305f 54bc d33f 26bc 5544 65bc
00000230: 096c 1ebc 4e54 61bc 1401 8cbc 9b91 88bc
00000240: 104d 25bc 69df 30bc e1d6 44bb c2b0 91ba
00000250: 2420 7abb f9b4 7a3b 005f a43b 6a1d 14bb
00000260: a184 bb3b 908a 0080 7f82 0080 a0a3 0080
00000270: fa47 0000 7171 0000 4043 0080 4792 0080
00000280: 130b 0000 2cbf 0080 0c20 f03b 7939 423c
00000290: 2870 353b 278e a03b 57b5 f03b 633a 0e3b
000002a0: f8fb 013b d7c2 203c f3b1 4c3b 6b8e a3ba
000002b0: 46be 07bb 726b c0b8 8ca9 f7ba 3d8c 12bc
000002c0: 2e57 05bb 9cdb 0eba b78c 8fbb 5bb3 e8ba
000002d0: 77a1 8f3b 0fe6 d03b d3f1 ae3b 7269 083c
000002e0: 02a4 b93b e191 0d3c 8509 183b d926 a83a
000002f0: 36e2 cb3a a76c fd3a 9b66 4aba 2734 3f3b
00000300: 4485 72bb 6420 a8bb 92db dbba 9c26 ff3a
00000310: c9f9 bdb9 cf16 ba3a aa83 0000 a5be 0080
00000320: 9854 0000 f2bc 0080 3757 0000 8e49 0080
00000330: 7a58 0080 7a47 0000 3852 0080 1e9e 74ba
00000340: c852 16bc 7fde 99b9 c501 033c 35d7 6fbc
00000350: fa47 c1bb cbaa 8d3c 645d b6bb 6ac2 b4bc
00000360: d35b 153c e9fa cc3b df86 da3b d198 103c
00000370: 32e7 023c f5d3 5b3b af20 0bbb afb6 063c
00000380: 0b31 8839 c876 d302 07c8 3002 4f57 1580
00000390: f739 2d02 2d54 0b80 5b30 0100 ae06 9d02
000003a0: 1c54 0101 1883 0000 145c 073b 5f4d e23a
000003b0: 79ed b1ba b471 293c 8658 f33b 6b41 e93b
000003c0: c877 8dba 7029 f43b 9c9d 173b 5f65 0080
000003d0: 6181 0000 e85b 0000 de75 0000 f191 0080
000003e0: 04b0 0000 313e 0080 9590 0000 bc6f 0080
000003f0: 7df8 0080 ff45 0180 9822 0180 6932 0180
0.010535664 0.01607457 0.0111182965 0.003227653 -0.017272852 0.010300127 0.007496925 -0.0031680327
0.009434311 0.00026337063 -0.00029007852 -0.00082611793 -0.002144169 -0.006684988 -0.003949493 -0.0004942187
-0.0038952536 -0.002323816 0.0025133826 0.005940834 0.00310928 0.00028333554 0.0031442915 0.0057865977
0.00061070226 0.00018329376 0.0023155923 -0.004123603 0.0097221015 -0.018711008 0.00021490443 -0.013459477
-0.006699824 0.005041933 -0.0010422207 -0.0033663234 5.914e-41 4.7364e-41 -8.0135e-41 -4.076e-42
5.823e-41 8.1931e-41 -5.8866e-41 8.1067e-41 -3.7284e-41 -0.0047671134 -0.0039140848 -0.005785774
0.003597456 0.0035313154 0.0009757463 0.0021397397 0.001237702 -0.0018417984 -0.010691823 -0.01079942
-0.008799573 -0.008916618 -0.018584386 -0.007658112 -0.004052871 -0.0065242453 -0.006051825 0.0020350493
-0.0028932476 0.004001319 -0.0029805924 -0.0014175815 -0.0032062053 0.011518467 0.0021381741 0.0055600055
-0.0024936697 -0.0036169335 -0.0014371474 -0.002153697 -0.00533739 -0.0019468884 -0.0013076438 -0.0037828132
-0.002390695 0.00061949686 0.002197303 0.0025429646 0.00017861245 -0.00092445355 0.0045320666 -0.0014459827
0.0011416475 0.0012023143 0.0023607444 -0.002854571 -0.0012103649 0.0010875996 0.0022735843 -0.0032026845
-0.00033114076 0.0051563685 -0.0018265449 -0.010651551 0.0024551977 0.008473816 -0.012210868 -0.0067284703
-0.0042502065 -0.020310413 -0.005860691 -0.013703712 0.0023813653 0.0015095004 0.0019431963 0.0053780475
0.00588424 0.0056666015 0.0029490718 0.0031826838 0.0026627234 -3.1969e-41 -4.7561e-41 8.3892e-41
7.328e-41 -3.1678e-41 2.5568e-41 -6.84e-43 4.5298e-41 8.4472e-41 0.0036065278 0.0036240395
0.0035950742 0.0036005042 0.0036336998 0.0036168578 0.0035733199 0.0036117907 0.0036034468 -0.012772134
-0.0143429255 -0.012962148 -0.010147053 -0.013993342 -0.009669312 -0.01375301 -0.017090358 -0.016670993
-0.010089174 -0.010795453 -0.0030035304 -0.00111153 -0.003816613 0.003825484 0.0050162077 -0.002260054
0.0057225977 -4.9707e-41 -4.6813e-41 -5.8698e-41 2.582e-41 4.0695e-41 -2.4125e-41 -5.2474e-41
3.973e-42 -6.858e-41 0.007328039 0.011854523 0.0027685259 0.0048997584 0.007345836 0.0021702282
0.0019834023 0.009812078 0.0031233996 -0.0012478357 -0.0020712777 -9.175287e-05 -0.0018895133 -0.008944568
-0.0020346153 -0.00054495945 -0.004380788 -0.0017753647 0.004383262 0.0063750814 0.0053388863 0.008325921
0.005665303 0.008640737 0.0023199033 0.001282896 0.0015555087 0.0019334749 -0.0007720978 0.0029175372
-0.0037005702 -0.0051308144 -0.0016773811 0.0019466463 -0.00036234994 0.0014197471 4.7232e-41 -6.839e-41
3.0347e-41 -6.7781e-41 3.1287e-41 -2.6386e-41 -3.174e-41 2.5641e-41 -2.9495e-41 -0.00093314226
-0.00917501 -0.00029348207 0.007996027 -0.014638712 -0.005898473 0.017293354 -0.0055653322 -0.02206536
0.009116131 0.0062554968 0.00666891 0.008825497 0.007989692 0.0033543084 -0.0021229198 0.008222266
0.0002597648 3.107184e-37 1.2987843e-37 -1.959866e-39 1.2726668e-37 -1.040387e-39 1.09182e-40 2.307291e-37
2.3753904e-38 4.7028e-41 0.0020654248 0.001726549 -0.0013574801 0.01034205 0.0074263243 0.007118394
-0.0010793144 0.007451229 0.0023134714 -3.6365e-41 4.6412e-41 3.297e-41 4.2283e-41 -5.2354e-41
6.3143e-41 -2.231e-41 5.1866e-41 -4.0083e-41 -8.9141e-41 -1.16945e-40 -1.04245e-40 -1.09919e-40
